Model: "sequential_5"
┌─────────────────────────────────┬────────────────────────┬───────────────┐
│ Layer (type)                    │ Output Shape           │       Param # │
├─────────────────────────────────┼────────────────────────┼───────────────┤
│ lstm_15 (LSTM)                  │ (None, 3, 100)         │        43,600 │
├─────────────────────────────────┼────────────────────────┼───────────────┤
│ dropout_15 (Dropout)            │ (None, 3, 100)         │             0 │
├─────────────────────────────────┼────────────────────────┼───────────────┤
│ lstm_16 (LSTM)                  │ (None, 3, 100)         │        80,400 │
├─────────────────────────────────┼────────────────────────┼───────────────┤
│ dropout_16 (Dropout)            │ (None, 3, 100)         │             0 │
├─────────────────────────────────┼────────────────────────┼───────────────┤
│ lstm_17 (LSTM)                  │ (None, 100)            │        80,400 │
├─────────────────────────────────┼────────────────────────┼───────────────┤
│ dropout_17 (Dropout)            │ (None, 100)            │             0 │
├─────────────────────────────────┼────────────────────────┼───────────────┤
│ dense_5 (Dense)                 │ (None, 1)              │           101 │
├─────────────────────────────────┼────────────────────────┼───────────────┤
│ activation_5 (Activation)       │ (None, 1)              │             0 │
└─────────────────────────────────┴────────────────────────┴───────────────┘
 Total params: 613,505 (2.34 MB)
 Trainable params: 204,501 (798.83 KB)
 Non-trainable params: 0 (0.00 B)
 Optimizer params: 409,004 (1.56 MB)

Model Summary:
Predict table:
          date  price   open   high    low      value   neutral  positive  \
3   2014-01-23  307.3  306.3  312.9  305.2  1320000.0  0.796768  0.151979   
…
