Model: "sequential_47"
┌─────────────────────────────────┬────────────────────────┬───────────────┐
│ Layer (type)                    │ Output Shape           │       Param # │
├─────────────────────────────────┼────────────────────────┼───────────────┤
│ lstm_141 (LSTM)                 │ (None, 3, 100)         │        43,600 │
├─────────────────────────────────┼────────────────────────┼───────────────┤
│ dropout_141 (Dropout)           │ (None, 3, 100)         │             0 │
├─────────────────────────────────┼────────────────────────┼───────────────┤
│ lstm_142 (LSTM)                 │ (None, 3, 100)         │        80,400 │
├─────────────────────────────────┼────────────────────────┼───────────────┤
│ dropout_142 (Dropout)           │ (None, 3, 100)         │             0 │
├─────────────────────────────────┼────────────────────────┼───────────────┤
│ lstm_143 (LSTM)                 │ (None, 100)            │        80,400 │
├─────────────────────────────────┼────────────────────────┼───────────────┤
│ dropout_143 (Dropout)           │ (None, 100)            │             0 │
├─────────────────────────────────┼────────────────────────┼───────────────┤
│ dense_47 (Dense)                │ (None, 1)              │           101 │
├─────────────────────────────────┼────────────────────────┼───────────────┤
│ activation_47 (Activation)      │ (None, 1)              │             0 │
└─────────────────────────────────┴────────────────────────┴───────────────┘
 Total params: 613,505 (2.34 MB)
 Trainable params: 204,501 (798.83 KB)
 Non-trainable params: 0 (0.00 B)
 Optimizer params: 409,004 (1.56 MB)

Model Summary:
Predict table:
          date   price    open    high     low    value   neutral  positive  \
3   2021-03-19  510.70  515.50  517.65  508.00   3650.0  0.824136  0.144345   
…
