Model: "sequential_8"
┌─────────────────────────────────┬────────────────────────┬───────────────┐
│ Layer (type)                    │ Output Shape           │       Param # │
├─────────────────────────────────┼────────────────────────┼───────────────┤
│ lstm_24 (LSTM)                  │ (None, 3, 100)         │        43,600 │
├─────────────────────────────────┼────────────────────────┼───────────────┤
│ dropout_24 (Dropout)            │ (None, 3, 100)         │             0 │
├─────────────────────────────────┼────────────────────────┼───────────────┤
│ lstm_25 (LSTM)                  │ (None, 3, 100)         │        80,400 │
├─────────────────────────────────┼────────────────────────┼───────────────┤
│ dropout_25 (Dropout)            │ (None, 3, 100)         │             0 │
├─────────────────────────────────┼────────────────────────┼───────────────┤
│ lstm_26 (LSTM)                  │ (None, 100)            │        80,400 │
├─────────────────────────────────┼────────────────────────┼───────────────┤
│ dropout_26 (Dropout)            │ (None, 100)            │             0 │
├─────────────────────────────────┼────────────────────────┼───────────────┤
│ dense_8 (Dense)                 │ (None, 1)              │           101 │
├─────────────────────────────────┼────────────────────────┼───────────────┤
│ activation_8 (Activation)       │ (None, 1)              │             0 │
└─────────────────────────────────┴────────────────────────┴───────────────┘
 Total params: 613,505 (2.34 MB)
 Trainable params: 204,501 (798.83 KB)
 Non-trainable params: 0 (0.00 B)
 Optimizer params: 409,004 (1.56 MB)

Model Summary:
Predict table:
          date   price    open    high     low     value   neutral  positive  \
3   2018-03-15  1965.0  1861.0  1965.0  1850.0  165870.0  0.817595  0.149903   
…
