Model: "sequential_46"
┌─────────────────────────────────┬────────────────────────┬───────────────┐
│ Layer (type)                    │ Output Shape           │       Param # │
├─────────────────────────────────┼────────────────────────┼───────────────┤
│ lstm_138 (LSTM)                 │ (None, 3, 100)         │        43,600 │
├─────────────────────────────────┼────────────────────────┼───────────────┤
│ dropout_138 (Dropout)           │ (None, 3, 100)         │             0 │
├─────────────────────────────────┼────────────────────────┼───────────────┤
│ lstm_139 (LSTM)                 │ (None, 3, 100)         │        80,400 │
├─────────────────────────────────┼────────────────────────┼───────────────┤
│ dropout_139 (Dropout)           │ (None, 3, 100)         │             0 │
├─────────────────────────────────┼────────────────────────┼───────────────┤
│ lstm_140 (LSTM)                 │ (None, 100)            │        80,400 │
├─────────────────────────────────┼────────────────────────┼───────────────┤
│ dropout_140 (Dropout)           │ (None, 100)            │             0 │
├─────────────────────────────────┼────────────────────────┼───────────────┤
│ dense_46 (Dense)                │ (None, 1)              │           101 │
├─────────────────────────────────┼────────────────────────┼───────────────┤
│ activation_46 (Activation)      │ (None, 1)              │             0 │
└─────────────────────────────────┴────────────────────────┴───────────────┘
 Total params: 613,505 (2.34 MB)
 Trainable params: 204,501 (798.83 KB)
 Non-trainable params: 0 (0.00 B)
 Optimizer params: 409,004 (1.56 MB)

Model Summary:
Predict table:
          date   price    open    high     low    value   neutral  positive  \
3   2014-01-30  1155.7  1163.0  1163.0  1140.9   7090.0  0.604214  0.123994   
…
