Model: "sequential_21"
┌─────────────────────────────────┬────────────────────────┬───────────────┐
│ Layer (type)                    │ Output Shape           │       Param # │
├─────────────────────────────────┼────────────────────────┼───────────────┤
│ lstm_63 (LSTM)                  │ (None, 3, 100)         │        43,600 │
├─────────────────────────────────┼────────────────────────┼───────────────┤
│ dropout_63 (Dropout)            │ (None, 3, 100)         │             0 │
├─────────────────────────────────┼────────────────────────┼───────────────┤
│ lstm_64 (LSTM)                  │ (None, 3, 100)         │        80,400 │
├─────────────────────────────────┼────────────────────────┼───────────────┤
│ dropout_64 (Dropout)            │ (None, 3, 100)         │             0 │
├─────────────────────────────────┼────────────────────────┼───────────────┤
│ lstm_65 (LSTM)                  │ (None, 100)            │        80,400 │
├─────────────────────────────────┼────────────────────────┼───────────────┤
│ dropout_65 (Dropout)            │ (None, 100)            │             0 │
├─────────────────────────────────┼────────────────────────┼───────────────┤
│ dense_21 (Dense)                │ (None, 1)              │           101 │
├─────────────────────────────────┼────────────────────────┼───────────────┤
│ activation_21 (Activation)      │ (None, 1)              │             0 │
└─────────────────────────────────┴────────────────────────┴───────────────┘
 Total params: 613,505 (2.34 MB)
 Trainable params: 204,501 (798.83 KB)
 Non-trainable params: 0 (0.00 B)
 Optimizer params: 409,004 (1.56 MB)

Model Summary:
Predict table:
          date  price   open   high    low      value   neutral  positive  \
3   2014-01-27  52.19  53.60  54.23  52.14  4180000.0  0.609732  0.109835   
…
